model/keypoint_classifier/keypoint_classifier.tflite (tflite, 6588 bytes, 6 tensors)

sequential/dense/BiasAdd/ReadVariableOp f4 [20]
0	0x3ea288e0	0.31745052
1	0x3e1956a4	0.14974457
2	0x3e87a959	0.2649639
3	0x3e0460b2	0.12927511
4	0x3e71eb79	0.23624982
5	0xbe06c30e	-0.13160345
6	0x3d38f588	0.04515603
7	0x3e5796e8	0.2105366
8	0x3ec21362	0.37905413
9	0x3ea53fbb	0.32275185
10	0x3ded5676	0.11588757
11	0xbe821261	-0.25404647
12	0x3ea59ccc	0.3234619
13	0xbea48373	-0.32131538
14	0xbe10be85	-0.14135177
15	0xbde6e0f8	-0.11273378
16	0xbd2611fb	-0.04054449
17	0x3e7d931b	0.24763148
18	0x3e2c6fb9	0.16839494
19	0x3e1aeef1	0.15130211

sequential/dense_2/BiasAdd/ReadVariableOp f4 [5]
0	0xbeaea4f5	-0.34110227
1	0x3e39b578	0.18135631
2	0xbe12f14c	-0.1434986
3	0x3e13c1dc	0.1442942
4	0xbe472610	-0.19448113

sequential/dense_1/BiasAdd/ReadVariableOp f4 [10]
0	0x3e932a82	0.28743368
1	0x3e8ef188	0.2791865
2	0xbe3dbdda	-0.18529454
3	0xbd825f18	-0.06365794
4	0x3d85000b	0.06494149
5	0x3d8933e5	0.06699351
6	0x3e0bd363	0.13654856
7	0x3f05612a	0.52101386
8	0x3ebbacd8	0.36655307
9	0xbb871b99	-0.004123163

sequential/dense/MatMul f4 [20, 42]
0	0xbdef6134	-0.11688462
1	0x3dc6070c	0.09669313
2	0x3e572841	0.2101145
3	0x3f13dc5d	0.5775812
4	0x3e1f4c8c	0.15556544
5	0x3e3b52be	0.18293282
6	0x3ed1022d	0.40821972
7	0x3ed4d7e0	0.4157095
8	0x3e1ceee9	0.15325512
9	0x3ef3fb0f	0.4765248
10	0x3e0c4fd0	0.13702321
11	0xbda26775	-0.07929889
12	0x3dddb248	0.1082502
13	0x3d537584	0.051625744
14	0xbea7ad44	-0.3274938
15	0xbe90fcff	-0.2831802
16	0xbcedfa7d	-0.029050106
17	0xbea87041	-0.32898143
18	0x3e81a9d7	0.2532489
19	0xbe6b9cd5	-0.23009045
20	0x3e514625	0.20436914
21	0xbcbb7217	-0.02288155
22	0xbe11e7e0	-0.1424861
23	0xbe9afb93	-0.3027006
24	0x3e008044	0.1254893
25	0xbe81beb3	-0.25340804
26	0x3e91deb3	0.2849022
27	0x3de66e54	0.11251512
28	0x3d7a746e	0.061146192
29	0xbd24b367	-0.040210154
30	0xbe91c350	-0.28469324
31	0x3d79689a	0.06089077
32	0x3d2c5e3b	0.042082053
33	0x3ed1f4f4	0.41007197
34	0x3e65a9a1	0.2242799
35	0xbcaf2172	-0.021378253
36	0x3debb85a	0.11509772
37	0x3cc58820	0.024112761
38	0xbe8a014e	-0.2695412
39	0x3db74e65	0.089504994
40	0xbe9ae97b	-0.30256256
41	0x3eb91a8c	0.36153066
42	0xbe89ddb9	-0.26926973
43	0xbe0b50ac	-0.13604993
44	0xbe6ce106	-0.23132715
45	0xbf1a8aca	-0.60368025
46	0xbe9db6bc	-0.30803478
47	0xbe440615	-0.19142945
48	0xbe0655e7	-0.13118707
49	0xbf07eac8	-0.5309262
50	0xbe47f734	-0.19527894
51	0xbee0f136	-0.4393403
52	0xbe8fdef0	-0.28099775
53	0xbeba67b4	-0.36407244
54	0x3e86301f	0.26208588
55	0xbe72554e	-0.23665354
56	0x3e6e3efa	0.23266211
57	0x3cec93b5	0.028879026
58	0xbcdd5231	-0.027016731
59	0x3eab6298	0.3347366
60	0xbe0cf5c7	-0.13765632
61	0xbea5fa0a	-0.32417327
62	0x3e6f74bd	0.23384376
63	0xbb4a8cba	-0.0030906633
64	0x3c53abdc	0.012919392
65	0x3e157bf9	0.14598073
66	0xbe51a6c0	-0.20473766
67	0x3ebc1273	0.36732826
68	0xbe188753	-0.14895372
69	0x3c801039	0.015632736
70	0x3dac05d0	0.08399546
71	0x3e59175b	0.21200316
72	0xbd8b1199	-0.06790466
73	0x3e90e7b2	0.2830177
74	0xbc111b9f	-0.008856683
75	0x3ec78212	0.38966423
76	0xbe54ce7f	-0.20781897
77	0x3dab986a	0.0837868
78	0x3e2d6fae	0.16937134
79	0x3e95d258	0.29262042
80	0xbd71738b	-0.05894808
81	0x3f08384f	0.5321092
82	0x3e2d0934	0.16898042
83	0x3ed14c0b	0.4087833
84	0xbe4da77e	-0.20083424
85	0xbe83a57d	-0.25712195
86	0xbdbf551e	-0.09342407
87	0xbe677b29	-0.22605576
88	0xbe0c80d1	-0.13721015
89	0xbe58ac59	-0.21159495
90	0xbe1c4be5	-0.15263326
91	0xbeda6afb	-0.42659745
92	0xbddefd96	-0.108882114
93	0xbef736c6	-0.48283976
94	0xbe5b4060	-0.21411276
95	0xbd4a8b27	-0.049449112
96	0x3e89df46	0.26928157
97	0xbdf59f78	-0.11993307
98	0x3e4259b1	0.18979527
99	0xbe7de550	-0.24794507
100	0xbcc16f3c	-0.023612611
101	0xbe0f748f	-0.14009307
102	0xbe27fdef	-0.16405462
103	0x3aec3a56	0.0018022757
104	0xbd12e46c	-0.03586237
105	0xbd7542c0	-0.05987811
106	0x3e502f71	0.20330597
107	0x3dba2cdb	0.09090587
108	0x3e41576a	0.18881002
109	0x3d4f35bb	0.05058835
110	0xbcb0bb2d	-0.021573627
111	0xbd2e4e0d	-0.042554904
112	0x3e7b5980	0.2454586
113	0xbcf4b3ac	-0.02987083
114	0x3e65110d	0.22369786
115	0x3e614841	0.22000219
116	0x3e16cd9b	0.1472687
117	0x3e36ae0b	0.1783983
118	0x3df448ab	0.11927923
119	0x3e934266	0.28761595
120	0x3d1ee219	0.038789842
121	0x3e1d5c47	0.15367232
122	0x3e5506d6	0.20803389
123	0x3ea1054d	0.31449357
124	0x3dd270d9	0.1027543
125	0x3eb25322	0.3482905
126	0xbe1607a6	-0.14651355
127	0x3df13894	0.117783695
128	0xbdb6195a	-0.08891554
129	0x3dc51e85	0.09624962
130	0xbe2efc1d	-0.17088361
131	0x3df93dd6	0.121699974
132	0xbb2e7e32	-0.0026625511
133	0x3e9690bf	0.29407308
134	0xbc867a4f	-0.016415743
135	0x3edef119	0.43543318
136	0x3e1001e2	0.14063218
137	0x3ea8bdc6	0.32957286
138	0xbe1b5404	-0.15168768
139	0x3e644ce8	0.22294962
140	0xbe3f2e75	-0.18670066
141	0x3e2f9feb	0.17150848
142	0x3e8ef48a	0.27920943
143	0x3e73400e	0.23754904
144	0xbdb01eb1	-0.08599604
145	0x3e7fb230	0.24970317
146	0x3d9cd168	0.076571286
147	0xbd0d2cdd	-0.034466613
148	0xbe11a216	-0.14221987
149	0x3dfb571d	0.12272475
150	0xbe48b7af	-0.1960132
151	0x3e004f07	0.12530147
152	0x3ea0d909	0.31415585
153	0x3daa5ca9	0.08318455
154	0xbe09645a	-0.13417187
155	0x3d1825e4	0.03714551
156	0x3d66c1e8	0.056337267
157	0x3ea19534	0.31559145
158	0x3eb0cbe6	0.34530562
159	0x3d96e031	0.0736698
160	0x3e29ca2c	0.16581029
161	0xbef3adbd	-0.4759349
162	0x3cf0eb21	0.029408993
163	0x3d9171b1	0.07101763
164	0x3c25e44d	0.010125232
165	0xbd273ddc	-0.040830478
166	0xbe1992d3	-0.14997415
167	0xbe1f717f	-0.15570639
168	0xbe1725cf	-0.14760517
169	0x3cf1a990	0.029499799
170	0xbe21607c	-0.15759462
171	0xbea9c4bf	-0.33157918
172	0xbdf57d55	-0.11986796
173	0xbe8bcafb	-0.273033
174	0xbe02eb87	-0.12785159
175	0xbf085cec	-0.5326679
176	0x3e1ab1f9	0.15106954
177	0xbf06a790	-0.5259943
178	0xbed6e44d	-0.41971055
179	0xbeb22c54	-0.34799445
180	0x3dabfac4	0.08397439
181	0x3d752db9	0.059858058
182	0x3e9e9e4f	0.30980155
183	0xbcbee742	-0.023303632
184	0x3e436d4b	0.1908466
185	0x3e601a1b	0.21884958
186	0xbe726f63	-0.23675303
187	0xbe6db0ba	-0.23211947
188	0xbdf403c2	-0.11914779
189	0x3e8231f1	0.25428727
190	0xbcebf8cb	-0.028805157
191	0x3e8b5dc5	0.27219978
192	0x3e2c42b5	0.16822322
193	0xbcf1f0c6	-0.029533755
194	0xbe996238	-0.29957747
195	0xbe0b682c	-0.13613957
196	0xbdeba92a	-0.11506875
197	0xbde9d029	-0.114166565
198	0x3ca163b1	0.019700857
199	0x3ed8092a	0.42194492
200	0x3d3540dd	0.04425131
201	0x3ee9ccc8	0.45664048
202	0x3e41d284	0.18927962
203	0x3d79c1d6	0.060975872
204	0x3e558af1	0.20853783
205	0x3dd91a37	0.10600703
206	0xbe16b378	-0.147169
207	0x3f0a767c	0.5408704
208	0x3df3bd14	0.11901298
209	0x3eb5d50c	0.35514104
210	0x3e7efb54	0.24900562
211	0xbe8d7f71	-0.27636293
212	0xbec16b71	-0.37777284
213	0x3b9dcd22	0.0048157135
214	0xbeb7090e	-0.35749096
215	0x3e71b713	0.23604994
216	0xbdfe4900	-0.124162674
217	0xbdcaaf46	-0.09896712
218	0xbe0944db	-0.13405173
219	0xbdd712f9	-0.105016656
220	0xbe8fadd4	-0.28062308
221	0xbe12f83f	-0.14352511
222	0xbd085cfd	-0.033291806
223	0x3c06d430	0.0082293
224	0x3d1a4980	0.03766775
225	0xbe1a0957	-0.15042625
226	0x3e93fc31	0.28903344
227	0xbdf30822	-0.118667856
228	0xbe74e58e	-0.23915693
229	0xbe5433d9	-0.20722903
230	0x3c25f8c7	0.010130114
231	0x3dbf2c0c	0.09334573
232	0xbde5f71c	-0.11228773
233	0xbddb1f07	-0.10699277
234	0x3e58b302	0.21162036
235	0xbe801604	-0.25016797
236	0xbe350542	-0.17677787
237	0x3e544def	0.20732854
238	0xbe22e083	-0.15905957
239	0x3b1d00ab	0.0023956697
240	0x3c0dcba7	0.0086545115
241	0xbed19d35	-0.40940252
242	0x3ee8f70e	0.45500988
243	0xbe4711fb	-0.19440453
244	0x3e8b3774	0.27190745
245	0xbcd7c534	-0.026339151
246	0xbdad8a13	-0.08473601
247	0xbd7d6d4b	-0.061871808
248	0x3f0b3482	0.54376996
249	0xbed5feeb	-0.4179605
250	0x3ebae63b	0.36503777
251	0xbd3bd669	-0.045858774
252	0xbe6cb40a	-0.23115554
253	0x3e4f5bb0	0.2024982
254	0xbd8d6e21	-0.06905771
255	0xbeeaa757	-0.45830795

sequential/dense_1/MatMul f4 [10, 20]
0	0x3df7e7f5	0.12104789
1	0x3eba829a	0.36427766
2	0x3f1d65aa	0.6148325
3	0xbda2a498	-0.0794155
4	0x3e374ef8	0.17901218
5	0x3e49dbec	0.197128
6	0x3f184b01	0.59489447
7	0xbdf411b2	-0.119174376
8	0xbe54b03b	-0.20770352
9	0xbe8caabf	-0.2747402
10	0xbebe6a76	-0.37190598
11	0x3f1ca438	0.6118808
12	0x3f19f902	0.6014558
13	0x3d02b057	0.031906452
14	0x3f02e938	0.51137114
15	0xbf1f56e0	-0.62241936
16	0x3e8a9b09	0.27071407
17	0x3edabe57	0.42723343
18	0xbf0a870b	-0.5411231
19	0xbd9b75e9	-0.07590849
20	0x3f221673	0.63315505
21	0xbee8441c	-0.45364463
22	0xbd33c694	-0.04389055
23	0x3e70e9ab	0.23526637
24	0xbdf61cbc	-0.120171994
25	0x3d2110dd	0.039322723
26	0x3dbf52ff	0.09342002
27	0x3eada5b4	0.33915484
28	0x3e178f04	0.1480065
29	0x3ed3665e	0.41289037
30	0x3f07a1ef	0.52981466
31	0x3e7a7f0f	0.24462532
32	0xbdb93022	-0.09042384
33	0x3f19671b	0.5992295
34	0x3f1079d5	0.564359
35	0xbbeb752d	-0.0071855993
36	0x3d9bc39f	0.07605671
37	0x3d766530	0.060155094
38	0x3e947c58	0.29001117
39	0x3f35b448	0.7097821
40	0xbc8e3543	-0.017359382
41	0x3e8548c5	0.2603208
42	0xbf11c4cd	-0.5694092
43	0x3ef39369	0.47573403
44	0xbbfd4f83	-0.007730426
45	0xbe6c9445	-0.23103435
46	0x3e6bfdd3	0.23046045
47	0x3f00b64b	0.50278157
48	0xbd76bc3d	-0.06023811
49	0xbda9c1c8	-0.08288914
50	0xbe914a58	-0.28377032
51	0xbdc5748c	-0.0964137
52	0xbef895f8	-0.48551917
53	0xbe94139e	-0.28921217
54	0x3de9b878	0.11412138
55	0x3ee3bebb	0.44481453
56	0x3f3c2224	0.73489594
57	0xbe94d88b	-0.2907146
58	0x3e9c816a	0.30567485
59	0x3e87210a	0.26392394
60	0xbebdd925	-0.3707973
61	0xbe782a0a	-0.24234787
62	0xbe59b382	-0.21259883
63	0x3e667924	0.22507149
64	0xbde675b1	-0.112529166
65	0xbe66600a	-0.22497573
66	0xbe411b90	-0.1885817
67	0x3e820626	0.25395316
68	0x3c8dad5d	0.01729458
69	0xbea583b4	-0.32327044
70	0x3ea3f98f	0.32026336
71	0x3e8b5bfb	0.27218613
72	0x3cdb67c6	0.026782881
73	0xbbdec152	-0.006797948
74	0xbed72b28	-0.42025113
75	0x3e2ca7d6	0.168609
76	0xbebc1841	-0.36737254
77	0xbec47a1e	-0.38374418
78	0xbd182c39	-0.03715155
79	0xbe86e326	-0.26345176
80	0x3ec93bd7	0.39303467
81	0x397d70b6	0.00024169948
82	0xbf016cb3	-0.50556487
83	0x3e7b2303	0.24525075
84	0xbe916ada	-0.28401834
85	0xbec1c238	-0.3784349
86	0xbe5a3d55	-0.21312459
87	0x3f24c0ef	0.64356893
88	0x3edc2efb	0.43004593
89	0x3f260bc2	0.6486169
90	0x3edc3c25	0.43014637
91	0xbe6a74ee	-0.22896168
92	0xbf04d6a4	-0.51890016
93	0x3e4befe3	0.19915728
94	0xbe1b0bf3	-0.15141277
95	0x3d005b50	0.031337082
96	0xbe392505	-0.18080528
97	0x3e8c8843	0.2744771
98	0x3f0811a6	0.5315193
99	0x3ea3db20	0.32003117
100	0xbd1b6055	-0.037933666
101	0xbe881372	-0.26577336
102	0x3eb91e04	0.36155713
103	0x3eadb789	0.3392909
104	0xbec3b977	-0.38227436
105	0xbe2814a4	-0.16414124
106	0x3edc515f	0.4303083
107	0x3f2863e9	0.6577745
108	0x3f2fdca3	0.6869604
109	0x3ee38740	0.44439125
110	0x3f3304c4	0.69929147
111	0xbe23d051	-0.15997435
112	0x3de94aad	0.113911964
113	0xbde7bca3	-0.113152765
114	0x3e8dde3f	0.27708623
115	0x3eab4b71	0.33455995
116	0x3eabfce2	0.33591372
117	0x3ed5cffa	0.41760236
118	0x3c5b6611	0.013391034
119	0x3bf0b8e0	0.0073462576
120	0x3e8d83f9	0.2763975
121	0xbf1c3ea9	-0.6103311
122	0xbdb7d618	-0.08976382
123	0xbf4e3e91	-0.8056422
124	0xbdeede04	-0.1166344
125	0x3f186edf	0.59544176
126	0xbe027487	-0.12739764
127	0xbe9e4198	-0.3090942
128	0xbde7fe7e	-0.113278374
129	0xbed2ed9f	-0.41196916
130	0xbdea9702	-0.11454584
131	0x3ef0b15e	0.4701032
132	0xbe2a3f94	-0.16625816
133	0x3f2b86b5	0.6700242
134	0x3ea08e4e	0.3135857
135	0x3f17520e	0.5910958
136	0x3ec8f74e	0.39251179
137	0xbece8d91	-0.40342382
138	0x3e0affa7	0.13574086
139	0x3f001b0e	0.5004128
140	0x3f29ded3	0.6635563
141	0x3f115ecf	0.5678529
142	0x3f0236dd	0.50864965
143	0x3e295c08	0.16539013
144	0x3eed3d78	0.4633596
145	0x3e1627cd	0.1466362
146	0x3f1da9d0	0.6158724
147	0x3ee367f3	0.44415244
148	0x3f1cfa65	0.6131957
149	0x3f0453dc	0.5169046
150	0x3de160d3	0.11004796
151	0xbca23e19	-0.019805001
152	0x3e8742d5	0.26418176
153	0xbdd5680a	-0.104202345
154	0xbdaa8796	-0.08326642
155	0xbecac212	-0.3960119
156	0x3d2e85ec	0.042608187
157	0x3f39c218	0.7256179
158	0xbeec2561	-0.46122268
159	0xbde3a3ec	-0.1111525
160	0xbd9b0d8b	-0.075709425
161	0x3ed7d239	0.42152575
162	0x3e44de8c	0.1922552
163	0xbe9cf1fe	-0.30653375
164	0x3eee74b8	0.46573424
165	0xbc428ebb	-0.01187485
166	0xbe3025d9	-0.17201938
167	0xbcd72c2d	-0.026266182
168	0x3e9066ee	0.2820353
169	0x3e02a573	0.12758426
170	0xbedce3a1	-0.43142417
171	0xbd801948	-0.06254822
172	0x3f1951cb	0.5989043
173	0xbeae0d8d	-0.33994713
174	0xbf29f801	-0.6639405
175	0xbe194ffa	-0.14971915
176	0xbf1a2e84	-0.6022723
177	0x3dcf50f1	0.1012286
178	0xbe085bda	-0.13316289
179	0xbf10891b	-0.56459206
180	0xbed50e87	-0.41612646
181	0x3e7b886e	0.24563763
182	0x3ebea397	0.37234184
183	0xbe465c28	-0.19371092
184	0x3de2093d	0.11036918
185	0x3e84aa3e	0.25911134
186	0x3f1b6d2f	0.60713476
187	0xbdc74f23	-0.09731891
188	0xbdbc4cd8	-0.09194344
189	0xbec3a188	-0.38209176
190	0xbd89a55f	-0.06720995
191	0xbc524153	-0.012832957
192	0xbf019bbd	-0.5062826
193	0x3ecbd5cc	0.39811552
194	0xbd9de455	-0.077095665
195	0x3d4ad7f6	0.049522363
196	0xbdc3a985	-0.09553818
197	0x3e52b63b	0.20577328
198	0xbf01615b	-0.5053918
199	0xbd980d16	-0.07424371

sequential/dense_2/MatMul f4 [5, 10]
0	0x3eb547d0	0.3540635
1	0xbc815b54	-0.015790619
2	0x3ec6a2ba	0.38796026
3	0x3f0db78d	0.553582
4	0x3e68d94c	0.22739142
5	0x3d222794	0.039588526
6	0x3df122ab	0.117741905
7	0xbf1a062f	-0.60165685
8	0xbe974705	-0.2954637
9	0x3ee15f27	0.44017908
10	0x3ed15d21	0.40891364
11	0x3db8066c	0.089856
12	0xbf29a26e	-0.66263473
13	0x3e2e4af2	0.17020777
14	0xbf03ef7b	-0.51537293
15	0xbe0457a6	-0.1292406
16	0xbe1fb2a4	-0.1559549
17	0x3e56e568	0.20985949
18	0xbeae692b	-0.34064612
19	0xbf8cdb10	-1.1004353
20	0xbe82486d	-0.2544588
21	0x3e8bd01d	0.27307215
22	0x3ed65a08	0.41865563
23	0x3ee916a9	0.455251
24	0xbed5f4dd	-0.41788378
25	0xbedee793	-0.43536052
26	0x3ebd2f5b	0.36950192
27	0xbf827bd3	-1.0194038
28	0x3e5a8466	0.21339568
29	0xbed7ede7	-0.42173693
30	0x3e44130b	0.1914789
31	0xbf7e5fbd	-0.99364835
32	0xbe8f2898	-0.27960658
33	0xbf128aad	-0.5724285
34	0x3e5367b6	0.20645031
35	0xbea3848a	-0.31937057
36	0xbf3b892a	-0.7325617
37	0x3f123f51	0.57127863
38	0x3f8ac321	1.0840799
39	0x3e2a23d4	0.1661523
40	0xbf3eb695	-0.7449735
41	0x3e0cce02	0.1375046
42	0x3ed4003a	0.41406423
43	0x3e5f07cb	0.21780317
44	0x3f6c7fba	0.92382395
45	0x3f0fdac2	0.5619317
46	0xbf460728	-0.7735467
47	0x3d1cdef5	0.038298566
48	0xbe918f05	-0.28429428
49	0xbf6d5321	-0.9270497
